policy/Himloco/policy_6_6.pt (torch, 991679 bytes, 14 tensors)

weight f4 [512, 64]
-0.07491632 -0.06432154 0.32334024 0.2547457 0.16498013 0.07395115 0.44424286 -0.15566674
0.3263202 -0.4122046 -0.01686656 0.04783118 -0.4252797 0.069919765 -0.35817105 0.36924747
-0.12419209 -0.076996125 -0.11980318 0.16534978 -0.25850224 -0.10339068 -0.324684 0.084017985
-0.0021763812 0.32699198 0.1377301 0.029336782 0.064300135 -0.051947184 -0.07126321 0.09360045
-0.10956894 -0.029559497 0.1302814 0.11109397 0.07229475 -0.045774568 0.049080808 -0.021331115
-0.012007385 0.045010507 0.018792702 -0.008958651 0.05292186 0.120720215 0.017311784 0.16185795
-0.08823732 -0.10606585 0.0580849 -0.12399058 0.0011627261 -0.049301207 -0.15714794 -0.06140633
0.1814701 0.079715 -0.045607623 0.02563859 -0.099089816 0.105333984 -0.043512568 -0.020972949
-0.012592065 0.05591677 -0.07013225 0.31979036 -0.094817966 -0.7812604 0.19484073 -0.75082153
0.08343393 -0.38788918 0.10735321 -0.17021127 0.21988152 0.00032086103 -0.31505522 0.0033705602
-0.24534792 -0.010764542 0.16224192 -0.2723356 -0.038589053 -0.30732164 0.111110665 0.012613693
-0.86346364 0.32415387 -0.1087206 0.074021734 0.061556045 0.019542728 0.062303204 -0.05608701
-0.25898468 0.04716524 0.009732646 -0.050886273 0.15655993 -0.04543099 -0.034889013 -0.043783747
-0.091765955 -0.042582046 0.12232546 -0.10589982 0.014828222 -0.13064788 -0.115455456 -0.5658316
0.002548897 -0.035404094 -0.035701998 -0.06230184 0.050698172 -0.03548751 -0.07088195 -0.032809608
0.15797547 -0.03112436 0.11172856 0.03923832 0.07428671 0.16534409 -0.01689248 0.08890302
-0.09562015 -0.35922334 1.345719 0.29563916 -0.11745914 0.45642424 -0.34694126 0.2265717
-0.07994958 0.18410401 -0.080558464 0.16407132 -0.0009846681 -0.13200326 -0.071528964 -0.36936536
-0.067176305 -0.3232034 0.18500215 -0.6161892 -0.031781007 -0.14347379 -0.17448373 -0.00014344431
-0.253435 -0.10012089 -0.21925439 -0.16628352 -0.26762673 -0.41170838 -0.060694396 0.009255914
-0.018396197 0.12378416 -0.027009249 -0.02341925 0.043779954 -0.021599974 0.087422885 -0.029725961
-8.031649e-05 -0.053531546 -0.021448346 0.033617415 -0.03144604 -0.12827791 0.07441859 0.22800255
0.026050037 -0.009720274 0.083796784 0.040023617 -0.133023 -0.08224564 -0.09285538 -0.032959722
-0.02775162 0.038872905 0.093280256 -0.10144892 -0.0040085665 0.04436378 -0.04579014 -0.020380136
0.3296075 -0.11658176 0.2683778 -0.10962167 0.086177215 -0.11116025 0.79699457 0.009661783
0.17555793 0.11710375 -0.37647393 0.4313799 -0.22659387 -0.20924877 -0.14717196 0.1527514
0.16950454 0.25737602 0.29862845 0.04036759 0.035787776 0.42532423 -0.1465054 -0.013719903
-0.031492263 -0.15780897 0.07678109 -0.22844195 -0.17367543 0.2512965 0.20258428 0.2378797
-0.17400676 -0.079455934 0.10458146 -0.06832413 0.010622925 -0.04035826 -0.02198626 -0.041712213
-0.026763659 0.033644326 0.056657963 -0.005161453 0.05678167 -0.13458697 0.04248981 0.19417682
0.07565501 0.114021674 0.07792426 0.17275624 -0.09682664 0.03251074 -0.025361849 0.049049985
0.043820888 -0.03498769 0.046651736 -0.06854023 8.94066e-05 0.041696012 0.15478547 -0.06389188
00000000: ba6d 99bd 03bb 83bd da8c a53e 076e 823e
00000010: 8df0 283e b373 973d cd73 e33e 1a67 1fbe
00000020: 7113 a73e 7b0c d3be bd2b 8abc a1ea 433d
00000030: 43be d9be 1832 8f3d 3262 b7be 010e bd3e
00000040: 6c58 febd 25b0 9dbd 5f5b f5bd 7451 293e
00000050: 685a 84be 7ebe d3bd fb3c a6be 9f11 ac3d
00000060: 9ea1 0ebb 7e6b a73e 1f09 0d3e b153 f03c
00000070: caaf 833d 92c6 54bd 72f2 91bd 98b1 bf3d
00000080: ae65 e0bd c226 f2bc 7d68 053e 3c85 e33d
00000090: 450f 943d 1d7e 3bbd f508 493d 97be aebc
000000a0: 9fba 44bc f05c 383d 27f3 993c 4ec7 12bc
000000b0: 98c4 583d 293c f73d 71d1 8d3c 17be 253e
000000c0: c5b5 b4bd 0d39 d9bd 6fea 6d3d c6ee fdbd
000000d0: 9d66 983a 10f0 49bd 64eb 20be 3485 7bbd
000000e0: 4cd3 393e 9e41 a33d 0fcf 3abd 0508 d23c
000000f0: 9aef cabd 58b9 d73d 3c3a 32bd 76cf abbc
00000100: f34e 4ebc fc08 653d 7fa1 8fbd 90bb a33e
00000110: ec2f c2bd ae00 48bf 5484 473e d735 40bf
00000120: 69df aa3d 6999 c6be 00dc db3d dd4b 2ebe
00000130: 9f28 613e 3d39 a839 eb4e a1be 9ee4 5c3b
00000140: 7c3c 7bbe c35d 30bc bf22 263e 926f 8bbe
00000150: 8e0f 1ebd 4359 9dbe fd8d e33d aaa9 4e3c
00000160: f40b 5dbf 7ff7 a53e e8a8 debd b598 973d
00000170: 3122 7c3d 1218 a03c a531 7f3d 7ebb 65bd
00000180: a499 84be 5730 413d ad75 1f3c 206e 50bd
00000190: 3f51 203e d915 3abd c8e7 0ebd 9656 33bd
000001a0: caef bbbd 836a 2ebd c585 fa3d 01e2 d8bd
000001b0: 12f2 723c 8fc8 05be e973 ecbd 57da 10bf
000001c0: 650b 273b e203 11bd 423c 12bd 3730 7fbd
000001d0: e3a8 4f3d 5a5b 11bd 8e2a 91bd 5e63 06bd
000001e0: 52c4 213e 84f8 febc f1d1 e43d 5cb8 203d
000001f0: a123 983d f64f 293e 1962 8abc c912 b63d
00000200: 7fd4 c3bd 1fec b7be 8540 ac3f 045e 973e
00000210: 6b8e f0bd 70b0 e93e 49a2 b1be 6902 683e
00000220: 9bbc a3bd c385 3c3e d6fb a4bd 5002 283e
00000230: fb0f 81ba dd2b 07be c77d 92bd 751d bdbe
00000240: bb93 89bd eb7a a5be 3471 3d3e 93be 1dbf
00000250: cd2c 02bd cbea 12be ddab 32be 8a69 16b9
00000260: 3bc2 81be 2e0c cdbd 3984 60be 3a46 2abe
00000270: 5f06 89be 71cb d2be b09a 78bd 1ea6 173c
00000280: 9fb3 96bc 8d82 fd3d 8042 ddbc bad9 bfbc
00000290: 9c52 333d 6ef2 b0bc c50a b33d dc83 f3bc
000002a0: 966f a8b8 e543 5bbd 71b4 afbc 6ab2 093d
000002b0: 90cd 00bd 495b 03be c668 983d 8079 693e
000002c0: e366 d53c c941 1fbc a69d ab3d ceef 233d
000002d0: 2e37 08be 6770 a8bd f62a bebd c600 07bd
000002e0: 5e57 e3bc 3239 1f3d b809 bf3d 74c4 cfbd
000002f0: 4b5a 83bb ccb6 353d 718e 3bbd 3ef4 a6bc
00000300: 50c2 a83e 6bc2 eebd d168 893e 5381 e0bd
00000310: ae7d b03d fca7 e3bd d607 4c3f 754c 1e3c
00000320: 75c5 333e 17d4 ef3d 31c1 c0be d4dd dc3e
00000330: 3908 68be 4f45 56be 3fb4 16be dd6a 1c3e
00000340: 9992 2d3e cac6 833e d4e5 983e 7c58 253d
00000350: 3496 123d 19c4 d93e 8305 16be 72c9 60bc
00000360: 08fe 00bd ad98 21be 673f 9d3d b0ec 69be
00000370: f9d7 31be efa9 803e 4172 4f3e bc96 733e
00000380: d42e 32be cbb9 a2bd ce2e d63d 85ed 8bbd
00000390: c70b 2e3c b44e 25bd 871c b4bc 6dda 2abd
000003a0: 763f dbbc a2ce 093d 2e12 683d 6821 a9bb
000003b0: e593 683d 2bd1 09be cc09 2e3d 4ad6 463e
000003c0: 04f1 9a3d 3284 e93d c196 9f3d 03e7 303e
000003d0: 0c4d c6bd fb29 053d a7c3 cfbc a3e8 483d
000003e0: 887d 333d 414f 0fbd e415 3f3d d25e 8cbd
000003f0: ce7f bb38 70c9 2a3d 1580 1e3e bfd9 82bd

bias f4 [512]
-0.10510899 -0.092345074 -0.18573785 -0.09230603 0.065792516 -0.19637062 0.046862893 -0.060288217
-0.030202273 -0.08358219 -0.0198628 0.14919981 -0.16778201 -0.14099032 -0.08723808 0.102603436
-0.18105078 -0.24699715 0.042250708 0.028283594 -0.034150187 0.021215485 0.0590333 0.006857141
-0.054600056 -0.057667192 0.03970334 0.051369242 -0.020150995 0.085848786 0.042275336 0.078893945
-0.0070725987 -0.15355036 0.19788405 0.124532014 0.011442272 -0.0671882 0.0012134691 0.018358566
-0.16453755 0.086876124 -0.17321947 -0.19615501 0.012923944 -0.032927256 -0.21936277 -0.23873957
-0.23079902 -0.17476584 -0.008469397 -0.08730052 0.008925836 0.054245234 0.108575225 -0.22197093
-0.049073428 0.07499005 -0.11549374 -0.061875887 0.092684634 -0.03761327 0.032215204 -0.04928118
0.04354249 0.052285373 -0.15665534 -0.111965925 0.030071914 0.12467817 0.08032698 0.03882115
0.07390684 -0.20282072 0.0837048 -0.14787507 0.024592273 -0.043839794 -0.10303589 0.054364618
-0.03232473 -0.20829466 0.02767538 0.052692458 -0.044014152 0.035648122 0.051684584 0.08302796
-0.123917274 -0.1769219 0.0060356725 -0.16068333 0.006191744 -0.12072666 -0.26941678 0.06863361
0.04188503 0.059781063 -0.12684986 0.07914801 -0.21136813 0.004694414 -0.06742786 -0.0061166906
0.11831477 -0.2028946 -0.10531307 0.06595495 0.074948765 0.006294478 0.07007583 0.062258486
-0.008293714 0.08238022 -0.26698408 -0.14727375 -0.15180476 0.10396318 -0.13843739 0.0046243686
0.17271055 0.2251967 0.077617235 0.1309768 -0.07034396 -0.03676454 -0.14356503 0.14148368
-0.11093214 0.0682485 -0.01290882 -0.052845724 -0.039724752 0.04761435 0.20784315 0.040594336
-0.019836135 -0.024734223 -0.10070446 0.08404982 0.076218635 0.0664452 0.020066366 0.09992491
-0.20137542 -0.11017205 -0.13793233 -0.05810182 0.113417655 0.0127382735 -0.10908926 0.020772895
-0.13103908 0.16771153 0.054611217 -0.04826924 -0.24413098 -0.14455761 -0.017528927 0.24677888
0.07896125 0.07507464 -0.14362583 -0.14482683 -0.056448117 -0.11748955 0.058252215 0.07613727
-0.04234383 -0.03739671 0.08680923 0.08302734 0.12061679 -0.1747453 -0.07234914 0.019640697
-0.029667962 -0.19693457 -0.025982657 0.1399733 0.04441718 -0.03359858 -0.10869067 0.011646749
-0.10476251 0.1334979 -0.09876094 -0.12818825 0.13505895 0.012856337 -0.119853474 -0.32518306
-0.07766318 0.0005626804 0.017707152 0.069587626 -0.12508184 0.13338281 -0.24036804 -0.044075448
-0.006393902 -0.23367064 -0.116993845 -0.18473096 -0.037043113 -0.08779441 -0.16192152 -0.12439425
0.019741252 0.041773625 -0.15052839 -0.017793154 -0.19335978 -0.003922421 0.06362325 -0.024018649
-0.1265153 0.16357362 -0.11371977 0.13944827 0.0152699165 0.15846156 0.14365675 -0.16142964
-0.05109315 -0.12920398 0.0060020876 -0.074553415 -0.09968126 0.055683643 0.14980173 0.062891796
-0.048350908 -0.13683738 -0.15611245 -0.12721908 0.071847335 -0.21759136 0.07494799 0.095743105
0.08984753 -0.27495575 0.13485654 -0.17704986 -0.13631722 -0.055072505 0.043948337 -0.13150066
0.081617795 -0.28754938 0.17126575 -0.0383692 -0.014713664 -0.24046387 0.034029678 -0.106543794
00000000: 6243 d7bd 6a1f bdbd 1032 3ebe f20a bdbd
00000010: 3abe 863d 6115 49be 4ef3 3f3d c7f0 76bd
00000020: c26a f7bc 242d abbd 50b7 a2bc d6c7 183e
00000030: 0ccf 2bbe c45f 10be e1a9 b2bd c021 d23d
00000040: 6065 39be d2ec 7cbe 140f 2d3d ffb2 e73c
00000050: 11e1 0bbd 19cc ad3c e7cc 713d deb1 e03b
00000060: 4fa4 5fbd 6f34 6cbd f89f 223d 8e68 523d
00000070: b313 a5bc 7dd1 af3d e728 2d3d 2693 a13d
00000080: 42c1 e7bb 4e3c 1dbe 1ea2 4a3e a40a ff3d
00000090: 5e78 3b3c f899 89bd 440d 9f3a b464 963c
000000a0: 887c 28be 1cec b13d 7260 31be dcdc 48be
000000b0: f3be 533c bbde 06bd a2a0 60be 2578 74be
000000c0: 9456 6cbe d1f5 32be 3ac3 0abc 9dca b2bd
000000d0: ab3d 123c 4030 5e3d b05c de3d 594c 63be
000000e0: 3801 49bd 6294 993d fb87 ecbd 9271 7dbd
000000f0: 71d1 bd3d 5f10 1abd 17f4 033d 10db 49bd
00000100: 9c59 323d 3029 563d 426a 20be 644e e5bd
00000110: 6059 f63c 4557 ff3d 7982 a43d ed02 1f3d
00000120: 785c 973d 3cb0 4fbe 6c6d ab3d 906c 17be
00000130: bc75 c93c 5b91 33bd 7b04 d3bd 6fad 5e3d
00000140: f066 04bd 324b 55be 7bb7 e23c 0cd4 573d
00000150: 2f48 34bd c403 123d 37b3 533d 900a aa3d
00000160: 57c8 fdbd 042b 35be e4c6 c53b 2c8a 24be
00000170: 1de4 ca3b 8a3f f7bd fff0 89be c78f 8c3d
00000180: a38f 2b3d fddc 743d eee4 01be 5a18 a23d
00000190: e370 58be 99d3 993b 9e17 8abd 856e c8bb
000001a0: 044f f23d 9ac3 4fbe 61ae d7bd 6413 873d
000001b0: bd7e 993d e941 ce3b eb83 8f3d c102 7f3d
000001c0: 5ce2 07bc f6b6 a83d 23b2 88be eece 16be
000001d0: b572 1bbe a6ea d43d 88c2 0dbe 0488 973b
000001e0: 09db 303e f799 663e c9f5 9e3d c81e 063e
000001f0: 7e10 90bd 6a96 16bd b602 13be 19e1 103e
00000200: 6430 e3bd dfc5 8b3d 847f 53bc c274 58bd
00000210: 6cb6 22bd 4407 433d d6d4 543e 3f46 263d
00000220: 647f a2bc 6d9f cabc 243e cebd 5022 ac3d
00000230: 8418 9c3d 6c14 883d 3862 a43c 6ea5 cc3d
00000240: 5c35 4ebe e2a1 e1bd 223e 0dbe 2dfc 6dbd
00000250: 8447 e83d 31b4 503c 316a dfbd eb2b aa3c
00000260: 1c2f 06be 92bc 2b3e 03b0 5f3d f7b5 45bd
00000270: 79fd 79be e906 14be d398 8fbc 9ab3 7c3e
00000280: 70b6 a13d bcc0 993d a612 13be 7c4d 14be
00000290: 2436 67bd 5c9e f0bd e099 6e3d dbed 9b3d
000002a0: b970 2dbd 4b2d 19bd 0ac9 b13d 3d0a aa3d
000002b0: f005 f73d 6ff0 32be c92b 94bd 87e5 a03c
000002c0: 3a0a f3bc 37a9 49be 95d9 d4bc 2955 0f3e
000002d0: caee 353d aa9e 09bd 3799 debd 02d2 3e3c
000002e0: ba8d d6bd acb3 083e 2d43 cabd c843 03be
000002f0: e54c 0a3e 63a3 523c bd75 f5bd 657e a6be
00000300: e00d 9fbd d880 133a 970e 913c f583 8e3d
00000310: 7415 00be 8195 083e 0a23 76be 7588 34bd
00000320: f083 d1bb 5b47 6fbe 789a efbd 1d2a 3dbe
00000330: 85ba 17bd 8ecd b3bd c1ce 25be 6ac2 febd
00000340: 68b8 a13c d21a 2b3d 1d24 1abe f3c2 91bc
00000350: 1b00 46be a787 80bb e84c 823d c2c2 c4bc
00000360: 3a8d 01be d87f 273e e9e5 e8bd 87cb 0e3e
00000370: ac2e 7a3c bf43 223e c11a 133e d04d 25be
00000380: 0d47 51bd 0c4e 04be 29ad c43b 76af 98bd
00000390: b025 ccbd 8814 643d a065 193e 6acd 803d
000003a0: 9a0b 46bd 191f 0cbe f1db 1fbe b845 02be
000003b0: b224 933d 45d0 5ebe 557e 993d f614 c43d
000003c0: fb01 b83d 00c7 8cbe d517 0a3e 8f4c 35be
000003d0: be96 0bbe b593 61bd 2c03 343d 1ca8 06be
000003e0: 3b27 a73d ac39 93be 4a60 2f3e 0629 1dbd
000003f0: 9411 71bc 293c 76be b462 0b3d a233 dabd

weight f4 [256, 512]
0.013356922 0.1646548 -0.08710366 0.08794141 -0.05481457 -0.11138416 0.13157211 -0.050432168
0.01789013 -0.03463921 -0.084594555 -0.103449225 -0.025456958 -0.07088599 -0.21211414 -0.10087026
-0.026382169 -0.1719653 -0.041988354 0.014608935 -0.013478826 0.17466351 -0.115870126 -0.07552776
-0.0061131413 -0.1386961 0.036758717 -0.0071635223 -0.10402496 -0.10774285 0.03712963 -0.053393748
-0.020544134 -0.13014105 -0.12004017 -0.048135377 -0.15145254 -0.06816152 -0.094969586 0.10024126
0.022272304 0.006190245 0.23581618 0.12596743 -0.054156564 0.05847634 0.011567374 -0.19750448
-0.040384084 -0.05544891 0.01968837 -0.029919166 -0.20212293 -0.018375428 -0.08833178 0.0059538577
0.0107795475 -0.13182993 -0.10790116 0.009339844 0.06635414 -0.028795172 -0.17962594 -0.0460683
-0.057435587 -0.09766512 -0.09477941 0.013875909 -0.011658068 -0.044685178 0.0834683 0.16937606
0.1889527 -0.022114314 0.0855493 0.20526843 -0.10704614 -0.26140037 0.0039796103 0.10437074
0.021652216 0.025474971 0.097394854 0.041196305 -0.090359434 -0.13711141 0.063662685 -0.1342469
-0.026868712 0.02103096 0.10424291 -0.06238372 0.106049545 0.04159532 0.010209529 0.08723572
-0.007708277 -0.032469574 0.029527165 0.13588649 -0.07757195 0.087793715 -0.07831842 -0.09388894
0.016662613 -0.021832744 -0.1706401 0.009967976 -0.029639672 -0.10974259 -0.13830473 -0.07518593
-0.07730962 -0.04738579 -0.092585914 0.01689581 0.15337352 0.15813042 -0.074770875 0.040323418
-0.19049595 0.022383949 -0.025034284 -0.15738827 0.049821224 -0.05824031 -0.14535825 -0.012075126
-0.12257415 -0.10813817 -0.10623894 -0.093835935 0.23743111 0.07396804 -0.011827192 -0.08801619
-0.04637663 0.019793522 0.067096844 0.016131021 0.03845429 0.013951699 0.111013584 -0.14289124
-0.040820748 0.16016449 0.09179622 -0.23283044 0.054636165 -0.019597497 -0.036991768 0.021940637
-0.16820882 -0.12608863 0.039037462 0.022714214 0.123937495 0.038480394 -0.09027371 -0.039165433
-0.110851474 -0.13485858 -0.014213604 0.12180265 0.12868032 -0.20044948 -0.033329558 0.17756754
0.039400075 0.010899227 0.033333898 0.025769453 0.08486728 0.11027968 0.08951955 -0.066713706
0.090352125 0.082920164 -0.039258305 -0.10399022 0.06317381 -0.005808172 0.070075676 0.03883371
-0.09414129 -0.03609768 0.00391353 -0.06110961 -0.082529925 0.055192415 0.13427256 -0.08582707
0.16627277 0.029841177 0.010561463 -0.13476244 0.009710851 0.024469603 0.06269516 -0.096404925
-0.091621116 0.06321745 0.046702288 -0.15544632 -0.08149344 -0.029807542 -0.039850242 -0.09303715
0.19426604 0.002716402 0.08639704 0.11518034 -0.1856562 0.047926255 0.0009928575 0.064380325
-0.06995955 -0.18881936 0.048487656 -0.026431104 -0.19873469 0.053235628 -0.08219987 -0.049766317
-0.13163675 -0.046902556 0.044823766 0.069407485 -0.027279088 0.0064043147 -0.1133217 -0.059877932
0.02036269 0.11669813 -0.16107537 0.13973974 -0.121240094 -0.08043422 -0.13256007 0.09920208
-0.023551961 0.05820274 -0.0048486236 -0.19874862 0.05196911 0.08323376 0.1654873 -0.010638114
-0.0032344249 0.010356547 0.12400378 -0.14437902 0.05184525 -0.14677928 -0.123421945 0.06260641
00000000: fed6 5a3c 459b 283e 6763 b2bd a01a b43d
00000010: 3e85 60bd 611d e4bd d7ba 063e f691 4ebd
00000020: 528e 923c d8e1 0dbd e93f adbd 30dd d3bd
00000030: 1c8b d0bc ad2c 91bd 7334 59be 1195 cebd
00000040: 6b1f d8bc ac17 30be fbfb 2bbd 515a 6f3c
00000050: 4bd6 5cbc feda 323e 514d edbd 4cae 9abd
00000060: bf50 c8bb 5a06 0ebe 4f90 163d fbbb eabb
00000070: 0a0b d5bd 49a8 dcbd 3d15 183d 67b3 5abd
00000080: 2c4c a8bc b243 05be 9fd7 f5bd 9a29 45bd
00000090: 6016 1bbe 4498 8bbd 6a7f c2bd 4a4b cd3d
000000a0: 6874 b63c 8ad7 ca3b cc79 713e 9bfd 003e
000000b0: 46d3 5dbd e384 6f3d 1585 3d3c 9d3e 4abe
000000c0: c869 25bd 651e 63bd 8149 a13c 0a19 f5bc
000000d0: 50f9 4ebe 1188 96bc 4be7 b4bd 9418 c33b
000000e0: b39c 303c 6dfe 06be 49fb dcbd 2506 193c
000000f0: aee4 873d dae3 ebbc ddef 37be 1db2 3cbd
00000100: 9441 6bbd a704 c8bd b51b c2bd c857 633c
00000110: 7b01 3fbc ce07 37bd 6ef1 aa3d eb70 2d3e
00000120: d17c 413e 1429 b5bc 7934 af3d e331 523e
00000130: 023b dbbd 45d6 85be 6467 823b 54c0 d53d
00000140: fd5f b13c e3b0 d03c f476 c73d 75bd 283d
00000150: 5e0e b9bd ef66 0cbe 9561 823d 0578 09be
00000160: c61b dcbc 1f49 ac3c 4f7d d53d 1286 7fbd
00000170: 8130 d93d db5f 2a3d de45 273c a4a8 b23d
00000180: b795 fcbb d1fe 04bd f4e2 f13c d425 0b3e
00000190: 0bde 9ebd 31cd b33d 6865 a0bd d848 c0bd
000001a0: 0880 883c 95da b2bc 47bc 2ebe b950 233c
000001b0: e6ce f2bc b9c0 e0bd c19f 0dbe 15fb 99bd
000001c0: 8254 9ebd 9a17 42bd af9d bdbd 1569 8a3c
000001d0: f30d 1d3e f1ec 213e 7921 99bd 2b2a 253d
000001e0: 5f11 43be 8b5e b73c b314 cdbc 642a 21be
000001f0: 5711 4c3d 648d 6ebd cbd8 14be c0d6 45bc
00000200: 2808 fbbd 8b77 ddbd cd93 d9bd 0e2d c0bd
00000210: 2421 733e 8e7c 973d d7c6 41bc d541 b4bd
00000220: 6cf5 3dbd 0626 a23c 126a 893d 3425 843c
00000230: 3f82 1d3d ab95 643c 175b e33d 1552 12be
00000240: a833 27bd 2902 243e a8ff bb3d 1a6b 6ebe
00000250: 2cca 5f3d ee8a a0bc ae84 17bd dabc b33c
00000260: ef3e 2cbe 611d 01be bfe5 1f3d 2913 ba3c
00000270: f1d2 fd3d 9e9d 1d3d 6ce1 b8bd ef6b 20bd
00000280: 1906 e3bd 5e18 0abe 2de0 68bc ab73 f93d
00000290: c6c4 033e a142 4dbe 9384 08bd 44d4 353e
000002a0: f961 213d ac92 323c 2089 083d 761a d33c
000002b0: e6ce ad3d 50da e13d 0756 b73d 32a1 88bd
000002c0: 890a b93d 0cd2 a93d 51cd 20bd d3f8 d4bd
000002d0: 4561 813d 7a52 bebb d683 8f3d 1910 1f3d
000002e0: 26cd c0bd 29db 13bd 123d 803b 124e 7abd
000002f0: 7305 a9bd 7111 623d bf7e 093e 1ac6 afbd
00000300: 6943 2a3e 7c75 f43c fd09 2d3c 2aff 09be
00000310: 431a 1f3c 7a74 c83c 5266 803d f26f c5bd
00000320: daa3 bbbd 2778 813d e64a 3f3d 522d 1fbe
00000330: 08e6 a6bd f22e f4bc 023a 23bd 438a bebd
00000340: aded 463e aa05 323b eef0 b03d ace3 eb3d
00000350: a91c 3ebe 524e 443d c522 823a d5d9 833d
00000360: f446 8fbd dd59 41be fe9a 463d 0b86 d8bc
00000370: 1b81 4bbe 9a0d 5a3d 6858 a8bd c4d7 4bbd
00000380: c9cb 06be e51c 40bd 2099 373d 8325 8e3d
00000390: 6578 dfbc 49db d13b 3515 e8bd 9042 75bd
000003a0: a8cf a63c 6eff ee3d f1f0 24be ef17 0f3e
000003b0: ba4c f8bd b2ba a4bd d4bd 07be 762a cb3d
000003c0: 0bf0 c0bc ff65 6e3d 34e1 9ebb c284 4bbe
000003d0: 90dd 543d 7676 aa3d 8175 293e 7c4b 2ebc
000003e0: a5f8 53bb 82ae 293c b2f5 fd3d 18d8 13be
000003f0: af5b 543d 4f4d 16be a5c4 fcbd ca37 803d

bias f4 [256]
-0.06533969 -0.12907243 -0.1209864 -0.07570438 -0.096724 -0.078425996 -0.021267204 0.05767253
-0.09931825 -0.10999508 -0.16897087 -0.06830027 -0.014196224 -0.055083554 -0.22469598 -0.044507306
-0.11994622 -0.087765396 -0.07191574 0.038944717 -0.0019534326 -0.1145726 -0.13537444 -0.12332263
-0.06980388 -0.0927554 -0.092609905 -0.06134923 -0.10418007 -0.07148637 -0.006224479 -0.11857636
-0.13466303 -0.12546554 -0.0908626 0.048265472 -0.19365478 -0.03738975 0.016032172 -0.09609635
-0.032313142 -0.055547167 -0.14170477 -0.07380117 -0.16594395 -0.14042516 -0.079468556 -0.16374736
-0.022361485 -0.09099291 -0.09658678 -0.0649203 -0.06580209 -0.0071735256 -0.12949045 -0.12162644
-0.13506229 -0.14355364 -0.06941705 -0.009894629 -0.08368057 -0.13992885 -0.11598653 -0.071412265
-0.035028957 -0.06177028 -0.019340487 -0.10391554 -0.18949051 -0.27698922 0.0714162 -0.08386856
-0.16165087 -0.15812908 -0.15805396 -0.09823182 -0.12284722 -0.18866287 -0.12628989 -0.061635144
-0.13894232 -0.16051517 -0.13097018 -0.11767251 -0.08743454 -0.047792267 -0.04110785 -0.13632312
-0.06678225 0.006680268 -0.090841 -0.23735951 -0.0968072 0.011805464 -0.0933338 -0.20415312
-0.1388187 -0.042460803 -0.042454377 -0.008584865 -0.12692389 -0.19408797 -0.04618903 -0.041236293
-0.09626068 -0.042625766 -0.021576649 -0.16073857 -0.003920294 -0.15755208 -0.1804902 -0.08442399
-0.21702132 -0.25605816 -0.08874376 -0.10773738 -0.008161422 -0.12512895 -0.15976395 -0.14240459
-0.17454717 -0.10647062 -0.08391406 -0.16348423 -0.1037979 -0.06656431 0.00091387343 -0.021487055
0.012711157 -0.050582368 -0.064095795 -0.1564507 -0.16282554 -0.03784148 -0.050949965 -0.2447864
-0.12992844 -0.047461446 -0.1386303 -0.02926512 -0.17088552 -0.15183413 -0.048021656 -0.03342762
-0.14108543 -0.065402135 -0.1376846 -0.05400094 0.0076816725 -0.09798673 -0.063050956 -0.04124523
-0.084623806 -0.17477775 -0.15922335 -0.03221999 -0.14973573 -0.00049555633 -0.11436648 -0.051618244
-0.1473204 -0.043517713 -0.13843332 -0.026731316 -0.1390038 -0.11517102 -0.105820134 -0.16282138
-0.06084471 -0.10972262 -0.06995757 -0.0018159854 0.04244153 -0.07486659 -0.17102407 -0.13900161
-0.034073014 -0.09991303 -0.18049625 -0.08884807 -0.18154253 -0.13588709 0.02655856 -0.06665078
-0.032421283 -0.061808355 -0.06483303 -0.044284746 -0.047803685 -0.088243484 -0.09799883 -0.073174015
-0.19486408 -0.089452095 -0.1866664 -0.10047024 -0.05559606 -0.11685563 -0.14766358 -0.10911792
-0.08369777 -0.168401 -0.052317444 -0.17637661 -0.079451084 -0.20180297 -0.0030737235 -0.09579866
-0.058535025 -0.027017241 -0.110806204 -0.12435068 -0.05754887 -0.02786183 -0.09076556 -0.19631667
-0.107272774 -0.09079277 -0.03874075 -0.01810946 -0.13456357 -0.18295385 -0.023572637 -0.117942855
-0.041924626 -0.0569463 -0.09266758 -0.1548837 -0.019927705 -0.087129846 -0.09121738 -0.04249455
-0.12847596 -0.048943758 -0.11314222 0.021692593 -0.023729285 -0.17187767 -0.14734468 -0.12806596
-0.120549306 -0.15665376 -0.1535878 -0.10688421 -0.10808845 -0.007002568 -0.16426411 -0.13842802
-0.057696663 -0.11613633 -0.0767891 -0.07748549 -0.16850007 -0.16938485 -0.07573301 -0.092794456
00000000: d1d0 85bd 902b 04be b8c7 f7bd e60a 9bbd
00000010: 3c17 c6bd cf9d a0bd 8f38 aebc 083a 6c3d
00000020: 5e67 cbbd 1a45 e1bd b306 2dbe 03e1 8bbd
00000030: 4797 68bc 4b9f 61bd b416 66be 4b4d 36bd
00000040: 5da6 f5bd 58be b3bd 8f48 93bd 7f84 1f3d
00000050: 2905 00bb 0aa5 eabd 999f 0abe 9390 fcbd
00000060: 56f5 8ebd 8bf6 bdbd 43aa bdbd 5549 7bbd
00000070: 5c5c d5bd 7267 92bd b7f6 cbbb 2ad8 f2bd
00000080: 1be5 09be 0a7a 00be 2c16 babd 04b2 453d
00000090: 704d 46be ff25 19bd e755 833c 2ace c4bd
000000a0: c95a 04bd 6d85 63bd 0e1b 11be 1125 97bd
000000b0: 36ed 29be 9dcb 0fbe 69c0 a2bd 63ad 27be
000000c0: 6f2f b7bc 7e5a babd 4acf c5bd eff4 84bd
000000d0: 3fc3 86bd e50f ebbb 2599 04be 4817 f9bd
000000e0: c54d 0abe baff 12be 872a 8ebd 151d 22bc
000000f0: b860 abbd 8249 0fbe 598a edbd 9840 92bd
00000100: 867a 0fbd d502 7dbd f16f 9ebc acd1 d4bd
00000110: cd09 42be 88d1 8dbe a842 923d 48c3 abbd
00000120: ce87 25be 97ec 21be e6d8 21be c42d c9bd
00000130: 5397 fbbd d730 41be 2352 01be 2275 7cbd
00000140: e546 0ebe 175e 24be 0c1d 06be 49fe f0bd
00000150: e110 b3bd d3c1 43bd b460 28bd 4a98 0bbe
00000160: 22c5 88bd 26e6 da3b d90a babd 5f0e 73be
00000170: da42 c6bd b46b 413c cb25 bfbd 840d 51be
00000180: 7d26 0ebe 61eb 2dbd a4e4 2dbd 89a7 0cbc
00000190: 56f8 01be ffbe 46be b530 3dbd 63e7 28bd
000001a0: 5224 c5bd 5b98 2ebd 83c1 b0bc a798 24be
000001b0: cf75 80bb 5555 21be 6cd2 38be 7ce6 acbd
000001c0: d63a 5ebe 0e1a 83be 4abf b5bd 6aa5 dcbd
000001d0: 7cb7 05bc ce21 00be 2999 23be 82d2 11be
000001e0: 7ebc 32be 450d dabd 22db abbd 6968 27be
000001f0: fe93 d4bd de52 88bd 0291 6f3a 9f05 b0bc
00000200: 7542 503c 752f 4fbd a844 83bd 9d34 20be
00000210: bdbb 26be abff 1abd e9b0 50bd 49a9 7abe
00000220: f60b 05be ef66 42bd 1af5 0dbe 68bd efbc
00000230: 9dfc 2ebe 687a 1bbe 5bb2 44bd 66eb 08bd
00000240: b378 10be 8ef1 85bd 31fd 0cbe 1730 5dbd
00000250: 8ab6 fb3b 44ad c8bd dc20 81bd c2f0 28bd
00000260: 3f4f adbd f0f8 32be 720b 23be 1cf9 03bd
00000270: 5354 19be 39e8 01ba f938 eabd a76d 53bd
00000280: 29db 16be a13f 32bd 77c1 0dbe a2fb dabc
00000290: 0357 0ebe c9de ebbd 3ab8 d8bd a6ba 26be
000002a0: 4d38 79bd 41b6 e0bd ea45 8fbd 5c06 eeba
000002b0: 2bd7 2d3d a853 99bd ef20 2fbe 7056 0ebe
000002c0: 2590 0bbd 349f ccbd 02d4 38be faf5 b5bd
000002d0: 49e6 39be fc25 0bbe 5691 d93c 3480 88bd
000002e0: 2ecc 04bd c22a 7dbd 2ec7 84bd ec63 35bd
000002f0: cccd 43bd 00b9 b4bd 9cb3 c8bd 42dc 95bd
00000300: 738a 47be a932 b7bd 7a25 3fbe 57c3 cdbd
00000310: b2b8 63bd 0152 efbd 1f35 17be 3779 dfbd
00000320: bd69 abbd 5071 2cbe d14a 56bd 129c 34be
00000330: 40b7 a2bd 70a5 4ebe 8670 49bb 1632 c4bd
00000340: 6cc2 6fbd 4353 ddbc 5dee e2bd 92ab febd
00000350: 5db8 6bbd 7e3e e4bc 4be3 b9bd 3d07 49be
00000360: d4b1 dbbd 8ff1 b9bd 9fae 1ebd 4a5a 94bc
00000370: 08cb 09be 4158 3bbe 671b c1bc 068c f1bd
00000380: 28b9 2bbd 8640 69bd 80c8 bdbd d599 1ebe
00000390: 6d3f a3bc 2271 b2bd 2dd0 babd c40e 2ebd
000003a0: 348f 03be 4079 48bd 1cb7 e7bd aab4 b13c
000003b0: eb63 c2bc b300 30be 86e1 16be b923 03be
000003c0: 8ee2 f6bd d869 20be 1f46 1dbe 1ce6 dabd
000003d0: 7a5d ddbd cc75 e5bb da34 28be 13c0 0dbe
000003e0: 5653 6cbd e2d8 edbd 9b43 9dbd b6b0 9ebd
000003f0: 488b 2cbe 3973 2dbe e919 9bbd 050b bebd

weight f4 [128, 256]
0.08723469 -0.019101422 -0.064298615 0.04630775 -0.051351357 -0.0033215333 0.012823062 0.035182696
0.09454083 0.01833708 -0.06950423 -0.18216522 -0.12386701 -0.0066852137 -0.030881448 0.022397796
0.07169151 0.058388628 0.03103954 -0.09550671 0.008481065 0.088200964 0.1306926 0.042484336
0.055337537 -0.024429884 -0.07037608 -0.067702636 0.050993983 -0.07570336 -0.09319361 -0.020396922
0.20243873 -0.028512195 -0.05120855 -0.12923318 0.10195304 0.008872365 -0.08506542 -0.1465071
0.02168251 -0.048383344 -4.7788453e-05 0.03372897 -0.0914463 0.039681576 -0.017324133 0.03815296
-0.10538753 -0.08981137 -0.07897818 -0.035361174 -0.001045641 0.030036632 -0.051682405 -0.062291928
0.017262787 0.010686825 0.06773188 0.0077513787 -0.08663253 -0.053703506 -0.042120162 0.013413439
-0.060906168 0.022416713 -0.036870606 0.03800778 -0.0436097 -0.027045574 0.05121524 -0.013613327
-0.11917581 0.029951187 0.04428913 0.09673762 -0.079895094 -0.004425616 0.013124244 -0.005448738
0.07791299 -0.062491644 -0.09161798 -0.02402626 -0.0651406 -0.0021879906 -0.08005926 0.05845143
-0.002480119 -0.018010989 -0.01996137 0.010940454 0.10681633 -0.16539875 -0.044853695 -0.06361663
-0.079403006 -0.031541474 0.1006995 -0.22104803 0.0062694782 0.0050897584 0.21017928 -0.1647188
0.04418231 -0.08727723 -0.10157974 -0.04393172 0.029613571 -0.14360254 0.079098046 -0.07112493
0.01782616 0.019055868 0.044816494 0.1172589 -0.03964978 -0.050272472 -0.10768943 0.055706915
0.087383784 -0.0032870525 -0.16853714 0.012878875 -0.051125206 -0.06351494 -0.13615066 0.2443928
-0.15723084 -0.029725194 0.0033820542 0.037641443 -0.08542592 0.034881145 -0.04054118 -0.089541785
0.09012606 -0.117767215 0.04839286 -0.1422578 0.011903526 0.08862885 0.042107888 0.057597212
0.088035844 -0.10297309 0.028842289 0.07212591 -0.14795414 0.045792386 -0.09376983 -0.08438757
0.036369756 -0.04863797 -0.012859193 0.00905343 -0.059053157 -0.026204556 -0.0019962378 -0.025811043
0.0013180195 -0.027274348 0.041543595 -0.005788373 -0.044073988 -0.014898437 0.0032016418 0.041001398
-0.0038700202 0.024166968 0.22850059 0.102223314 -0.11434532 0.03304671 -0.020065408 0.07526683
-0.0014975241 0.003023062 0.10146835 0.053376853 -0.0031605198 -0.028282396 0.06847564 -0.15391873
0.06380503 -0.02143198 0.029392568 -0.015921043 -0.0865131 0.067293786 0.008267791 -0.010759023
-0.02786443 0.14430861 -0.0030001705 -0.043405898 -0.07935787 -0.008367676 -0.021894218 -0.08301587
-0.15179394 -0.08345823 -0.04309791 0.04050337 -0.029938238 -0.06921234 -0.014937235 -0.030256055
-0.061023552 0.06330153 -0.11793502 -0.040019535 0.12095637 0.10887588 -0.09457266 0.018843517
-0.04840112 0.105814755 0.07570461 -0.013092008 0.043419305 -0.04631535 0.028480884 -0.053276703
-0.035601456 -0.09009977 -0.14887539 -0.12927437 0.083017714 0.007223552 -0.046722095 -0.0013941966
0.054124914 -0.05514539 -0.034563813 0.058842123 0.12056319 0.11972855 -0.03677837 -0.0062469067
0.037662756 0.02004327 -0.113721564 -0.01341079 0.034647003 -0.032538824 0.03726224 -0.106420755
0.0611221 -0.070914455 -0.04299576 0.05245142 -0.04313751 0.053939804 -0.044356376 0.06922128
00000000: 1aa8 b23d 967a 9cbc feae 83bd 32ad 3d3d
00000010: cd55 52bd 15ae 59bb d217 523c bb1b 103d
00000020: 9f9e c13d a537 963c 3c58 8ebd 8589 3abe
00000030: fdad fdbd a30f dbbb 17fb fcbc 957b b73c
00000040: 00d3 923d ea28 6f3d a246 fe3c 0699 c3bd
00000050: 2af4 0a3c b5a2 b43d 48d4 053e 0e04 2e3d
00000060: 9da9 623d 2e21 c8bc 5621 90bd aea7 8abd
00000070: 11df 503d 5d0a 9bbd 4bdc bebd 7217 a7bc
00000080: 194c 4f3e 6892 e9bc 0ec0 51bd b455 04be
00000090: c1cc d03d 655d 113c c736 aebd f505 16be
000000a0: 859f b13c 9d2d 46bd 7670 48b8 6327 0a3d
000000b0: 3348 bbbd 2689 223d 57eb 8dbc 4746 1c3d
000000c0: 6bd5 d7bd 06ef b7bd 50bf a1bd e1d6 10bd
000000d0: e40d 89ba 620f f63c eeb0 53bd d225 7fbd
000000e0: b06a 8d3c cb17 2f3c 03b7 8a3d 47ff fd3b
000000f0: 656c b1bd 35f8 5bbd 3186 2cbd 0ac4 5b3c
00000100: bf78 79bd 41a3 b73c a205 17bd 0cae 1b3d
00000110: 16a0 32bd ae8e ddbc 12c7 513d 6f0a 5fbc
00000120: 7212 f4bd 315c f53c 8568 353d 601e c63d
00000130: 0aa0 a3bd c204 91bb 1207 573c 548b b2bb
00000140: d890 9f3d 3df7 7fbd 35a2 bbbd b8d2 c4bc
00000150: 6f68 85bd 6464 0fbb 1cf6 a3bd c46a 6f3d
00000160: 7e89 22bb c88b 93bc 0786 a3bc 973f 333c
00000170: 85c2 da3d 4a5e 29be 82b8 37bd 7049 82bd
00000180: 0b9e a2bd a231 01bd 8a3b ce3d 6a5a 62be
00000190: 3270 cd3b fdc7 a63b 3d39 573e 0cac 28be
000001a0: 83f8 343d 68be b2bd 0a09 d0bd bff1 33bd
000001b0: 2998 f23c 8b0c 13be 28fe a13d f3a9 91bd
000001c0: 2b08 923c 0d1b 9c3c 8091 373d 6f25 f03d
000001d0: cf67 22bd 82ea 4dbd 478c dcbd ef2c 643d
000001e0: 45f6 b23d 976b 57bb 0095 2cbe eb01 533c
000001f0: aa68 51bd 1f14 82bd 146b 0bbe 1b42 7a3e
00000200: 1f01 21be 4082 f3bc 74a5 5d3b ea2d 1a3d
00000210: c9f3 aebd 88df 0e3d 820e 26bd af61 b7bd
00000220: 0394 b83d f02f f1bd 9737 463d 07ac 11be
00000230: 0207 433c 0b83 b53d 5279 2c3d 0eeb 6b3d
00000240: 234c b43d 8ee3 d2bd aa46 ec3c c0b6 933d
00000250: 4a81 17be cc90 3b3d 660a c0bd 64d3 acbd
00000260: 74f8 143d 9c38 47bd 5daf 52bc d654 143c
00000270: b9e1 71bd f0aa d6bc 50d3 02bb ae71 d3bc
00000280: 65c1 ac3a 746e dfbc 9e29 2a3d 64ac bdbb
00000290: ed86 34bd 9318 74bc a3d2 513b 15f1 273d
000002a0: 2aa0 7dbb cef9 c53c 0ffc 693e 755a d13d
000002b0: e12d eabd fd5b 073d 3660 a4bc 7f25 9a3d
000002c0: 9248 c4ba 901e 463b a3ce cf3d b0a1 5a3d
000002d0: b920 4fbb 7cb0 e7bc f53c 8c3d df9c 1dbe
000002e0: 36ac 823d 1f92 afbc afc8 f03c d96c 82bc
000002f0: c82d b1bd 53d1 893d a175 073c 9d46 30bc
00000300: f243 e4bc a3c5 133e 829e 44bb 62ca 31bd
00000310: 6186 a2bd 9418 09bc 815b b3bc 3904 aabd
00000320: df6f 1bbe 26ec aabd 6f87 30bd dde6 253d
00000330: 0941 f5bc 33bf 8dbd 4ebb 74bc 8cdb f7bc
00000340: d5f3 79bd 3ca4 813d ea87 f1bd 86eb 23bd
00000350: f9b7 f73d 51fa de3d 50af c1bd b85d 9a3c
00000360: 4140 46bd 68b5 d83d 050b 9b3d dd7f 56bc
00000370: 71d8 313d 2ab5 3dbd be50 e93c ac38 5abd
00000380: d5d2 11bd 3a86 b8bd ca72 18be 8060 04be
00000390: 3105 aa3d 8cb3 ec3b ab5f 3fbd 7abd b6ba
000003a0: 16b2 5d3d 22e0 61bd c992 0dbd 7004 713d
000003b0: d5e9 f63d 3e34 f53d eba4 16bd dab2 ccbb
000003c0: 4344 1a3d c931 a43c dae6 e8bd eeb8 5bbc
000003d0: 04ea 0d3d 6e47 05bd 4aa0 183d 20f3 d9bd
000003e0: 2b5b 7a3d 993b 91bd 521c 30bd 4dd7 563d
000003f0: f5b0 30bd fcef 5c3d 08af 35bd e3c3 8d3d

bias f4 [128]
-0.051327046 -0.089251906 -0.07839118 -0.0011501649 -0.056111116 -0.08135077 -0.030194899 -0.03602371
-0.046343688 -0.06815542 0.107412055 -0.15622947 -0.026629461 -0.082644604 -0.023140715 -0.124573454
-0.042918857 -0.124181174 -0.046500515 0.014106852 -0.10517209 -0.024244253 -0.038850583 0.0045057633
-0.042313423 -0.100866824 -0.038384456 -0.16253293 -0.057221342 -0.058175396 -0.035181955 -0.18689795
-0.042820327 -0.07102067 0.010818983 -0.10005814 -0.10650216 -0.13246167 -0.093443036 -0.17826614
-0.042795822 -0.08100015 -0.06359555 -0.089223534 -0.05722825 -0.023469532 -0.09445163 -0.15922491
0.045919456 -0.15849699 -0.08100474 -0.1334096 -0.08957754 -0.07637875 -0.10959488 -0.08251612
-0.07390378 -0.039327003 -0.024774987 -0.16175064 -0.057981286 -0.1270055 -0.054337546 -0.05159024
-0.02261685 0.044470314 -0.028135354 -0.13278604 -0.008961254 -0.036334857 -0.052986003 -0.08897103
0.03237937 -0.08915646 -0.061450355 -0.07245953 -0.0054830587 -0.11909664 -0.11991119 -0.09308763
-0.09844252 -0.052512694 -0.08718249 -0.070480175 -0.10788643 -0.011911951 -0.04230566 0.07595752
0.0033739475 -0.025505975 -0.063888796 -0.08428323 -0.06053509 -0.058362707 -0.10649172 -0.030594936
-0.023142131 -0.09218085 -0.010391809 -0.13783531 -0.040481288 -0.1270148 -0.09922905 -0.0008655561
-0.039547496 -0.08780522 -0.064698175 -0.23711284 -0.28086862 -0.14827548 -0.015070751 -0.08100208
-0.07824383 0.0075353696 -0.11152804 -0.081215404 -0.068851866 -0.112225294 -0.059505135 -0.086338565
-0.079286695 0.032573663 -0.03015376 -0.031482976 -0.06429897 -0.103045896 -0.13683699 -0.05291475
00000000: 4f3c 52bd b4c9 b6bd 8e8b a0bd 21c1 96ba
00000010: c5d4 65bd 3c9b a6bd 4b5b f7bc 998d 13bd
00000020: e1d2 3dbd 1295 8bbd dafa db3d 9efa 1fbe
00000030: 0726 dabc 9341 a9bd 9991 bdbc 5e20 ffbd
00000040: afcb 2fbd b352 febd 5377 3ebd 6d20 673c
00000050: 7764 d7bd e29b c6bc ca21 1fbd 15a5 933b
00000060: d750 2dbd 4493 cebd 0539 1dbd 086f 26be
00000070: ed60 6abd 5349 6ebd f41a 10bd 2d62 3fbe
00000080: 5e64 2fbd 4973 91bd 1b42 313c 48eb ccbd
00000090: ce1d dabd 08a4 07be 105f bfbd 668b 36be
000000a0: ac4a 2fbd 68e3 a5bd 623e 82bd d4ba b6bd
000000b0: 2b68 6abd 2d43 c0bc db6f c1bd db0b 23be
000000c0: 0a16 3c3d 094d 22be d0e5 a5bd 879c 08be
000000d0: 6e74 b7bd 766c 9cbd 4873 e0bd 36fe a8bd
000000e0: dd5a 97bd 5a15 21bd eaf4 cabc f6a1 25be
000000f0: c97d 6dbd bb0d 02be 0c91 5ebd 4a50 53bd
00000100: f946 b9bc 8126 363d 1d7c e6bc 10f9 07be
00000110: 39d2 12bc dcd3 14bd da07 59bd 7236 b6bd
00000120: 3ba0 043d a997 b6bd 5eb3 7bbd a965 94bd
00000130: 3bab b3bb f0e8 f3bd ff93 f5bd baa4 bebd
00000140: 3b9c c9bd 8d17 57bd bc8c b2bd e957 90bd
00000150: 90f3 dcbd 582a 43bc b348 2dbd 9e8f 9b3d
00000160: 721d 5d3b e8f1 d0bc 21d8 82bd b09c acbd
00000170: a4f3 77bd bc0d 6fbd 5518 dabd 3ba2 fabc
00000180: 9194 bdbc 50c9 bcbd 6842 2abc b324 0dbe
00000190: b5cf 25bd 2b10 02be 9a38 cbbd 7de6 62ba
000001a0: 8efc 21bd 39d3 b3bd 7a80 84bd b5cd 72be
000001b0: 03ce 8fbe 87d5 17be 50eb 76bc 6be4 a5bd
000001c0: 4d3e a0bd 43eb f63b d068 e4bd 4354 a6bd
000001d0: 3502 8dbd 60d6 e5bd a8bb 73bd 46d2 b0bd
000001e0: 1061 a2bd f66b 053d 0505 f7bc 4bf4 00bd
000001f0: 2eaf 83bd ba09 d3bd ff1e 0cbe 23bd 58bd

weight f4 [12, 128]
0.042328317 -0.023555214 0.0067541776 -0.045019593 0.014467382 -0.04284473 -0.0065583186 -0.021888535
-0.004069356 0.07136451 0.0599686 0.021986112 0.023629615 0.04043662 0.047096133 0.012989951
-0.012340339 -0.025205702 -0.1731477 -0.01377473 -0.026929075 0.0134368595 -0.035331775 0.021194164
-0.021053446 0.027093645 0.043589827 0.061513588 -0.007068559 -0.006487188 0.05251178 -0.09496654
-0.018020302 -0.022861077 -0.013586126 -0.0039490373 -0.0032671615 -0.01737324 -0.033755947 -0.026308313
-0.0034475669 -0.088750474 -0.015307923 0.025646698 0.0519684 0.0122919 -0.011344023 -0.050774395
-0.019488739 0.05522997 -0.046692044 0.033804826 0.018885667 0.017566973 -0.03452521 0.044829227
0.06473134 -0.003776967 -0.03355615 -0.021891994 -0.011830408 0.0088541275 -0.008790597 0.018238764
-0.044693753 0.09123569 0.037578706 0.053480506 -0.04485797 0.04806399 -0.04049782 -0.020551419
0.003934136 0.019302951 -0.050820533 0.012790951 -0.0010778772 -0.009831664 0.009221129 -0.019379642
0.029827807 0.06989975 0.035189282 0.024422191 -0.0442713 -0.026512358 -0.0089225415 0.0062404615
-0.03981924 -0.05122193 0.0017960193 0.048034746 -0.044856567 -0.024882292 -0.047642384 -0.0073802983
0.0056221117 -0.016765978 -0.058034703 0.039973322 0.059838388 0.02508283 0.02424708 0.0062886886
0.020049803 0.027890848 0.017124048 0.018061848 0.062644966 0.026547737 -0.026679466 -0.01193653
0.013618203 0.0012205015 0.0574413 -0.005338937 -0.03257099 -0.031394325 0.051012065 -0.10540536
-0.012011969 0.04792327 0.10035162 -0.020500937 -0.0073039248 0.04507095 -0.013925018 -0.020949125
-0.036900807 0.012857579 -0.005046634 0.023447143 0.01831894 0.027469045 0.01641089 -0.005997189
0.070214055 0.05461132 -0.0437081 0.015603645 0.04621706 -0.0838233 -0.003296761 0.03425284
0.014971994 -0.03529253 0.026305499 0.006679912 0.03094071 -0.032401755 0.024890617 -0.04495191
-0.03378221 -0.012105409 -0.029398864 -0.022168435 0.029390085 -0.011219543 -0.036541253 -0.11720522
0.032433517 -0.030844592 -0.041819897 0.05631076 -0.020003278 -0.10580184 0.00727329 -0.04126044
0.022568272 0.08137751 0.061535858 -0.03104712 0.088480905 -0.0022291276 0.015257749 0.060115475
-0.056764748 0.04095372 0.15555881 0.009264431 0.018831689 -0.000486673 0.06512953 -0.022107035
0.016801987 0.016489115 0.015579005 0.056831814 0.00029759432 0.0147514185 0.016882416 -0.040784683
-0.06303865 -0.078428395 -0.021571968 0.052165955 -0.047634713 -0.010765266 -0.02756589 -0.006449856
0.0052970788 -0.0143140545 -0.059088945 -0.036724426 -0.0019057492 -0.030452581 0.0057205297 0.043506667
0.045263615 0.119600065 0.01031864 -0.015279748 0.037071228 -0.08277323 -0.17462753 -0.031496596
0.0010018327 0.019395296 -0.027988965 0.059455533 -0.037239127 -0.060266823 -0.016836006 -0.019297747
-0.052768108 -0.03933817 -0.029581461 0.039057475 0.049078204 -0.006077663 0.07078114 0.017132537
0.008971537 0.030243449 0.0012310842 0.040678613 -0.24766378 0.018974202 -0.0041324226 -0.032921817
0.017578594 0.0051396796 0.044692412 0.004316416 -0.112787485 -0.012327685 -0.021445168 0.17556798
-0.013296748 0.03281877 -0.01123088 0.039066456 -0.039016876 0.009455579 -0.0060340464 0.014503188
00000000: 7560 2d3d ddf6 c0bc 2652 dd3b 7766 38bd
00000010: 9908 6d3c f57d 2fbd 2ae7 d6bb 964f b3bc
00000020: 3b58 85bb 8e27 923d a2a1 753d 381c b43c
00000030: e592 c13c dfa0 253d e0e7 403d ced3 543c
00000040: 222f 4abc 307c cebc a14d 31be 68af 61bc
00000050: 5d9a dcbc 4626 5c3c 0db8 10bd 629f ad3c
00000060: 4778 acbc 7ef3 dd3c 3f8b 323d acf5 7b3d
00000070: 5f9f e7bb 7a92 d4bb 9816 573d d17d c2bd
00000080: 509f 93bc 2747 bbbc 5898 5ebc ed66 81bb
00000090: e01d 56bb 5352 8ebc ad43 0abd 8884 d7bc
000000a0: 93f0 61bb cfc2 b5bd 15ce 7abc 0619 d23c
000000b0: d1dc 543d f763 493c 48dc 39bc d0f8 4fbd
000000c0: d9a6 9fbc d238 623d 2840 3fbd ee76 0a3d
000000d0: 1db6 9a3c 9de8 8f3c 4e6a 0dbd da9e 373d
000000e0: dd91 843d fe86 77bb 2c72 09bd d756 b3bc
000000f0: 54d4 41bc e710 113c 7006 10bc 7669 953c
00000100: cc10 37bd c7d9 ba3d 21ec 193d 600e 5b3d
00000110: febc 37bd bfde 443d 0be1 25bd 735b a8bc
00000120: ede9 803b 3921 9e3c 3129 50bd 2391 513c
00000130: 8f47 8dba fd14 21bc 3814 173c 0ec2 9ebc
00000140: 7259 f43c 9a27 8f3d a322 103d 0c11 c83c
00000150: d355 35bd 7230 d9bc da2f 12bc c97c cc3b
00000160: 8019 23bd 16ce 51bd 6868 eb3a 15c0 443d
00000170: 85bb 37bd f3d5 cbbc a924 43bd 6ed6 f1bb
00000180: b139 b83b ce58 89bc ccb5 6dbd 11bb 233d
00000190: 1919 753d 827a cd3c d0a1 c63c 5811 ce3b
000001a0: 7c3f a43c 597b e43c bb47 8c3c 71f6 933c
000001b0: 014c 803d a47a d93c e58e dabc 6f91 43bc
000001c0: e21e 5f3c 3cf9 9f3a 9247 6b3d 40f2 aebb
000001d0: 2969 05bd 5697 00bd 07f2 503d c4de d7bd
000001e0: dacd 44bc 314b 443d 2685 cd3d 95f1 a7bc
000001f0: c355 efbb 519c 383d c225 64bc 809d abbc
00000200: 4d25 17bd 98a8 523c 3c5e a5bb 3914 c03c
00000210: 9a11 963c c306 e13c 2170 863c 1184 c4bb
00000220: 63cc 8f3d 1fb0 5f3d 4407 33bd 6ea6 7f3c
00000230: 1a4e 3d3d 8dab abbd 790e 58bb b54c 0c3d
00000240: 184d 753c e68e 10bd a17e d73c 2ae3 da3b
00000250: 5f77 fd3c b4b7 04bd 68e7 cb3c 7e1f 38bd
00000260: 375f 0abd c455 46bc e3d5 f0bc 949a b5bc
00000270: 7ac3 f03c 2dd2 37bc 48ac 15bd 4a09 f0bd
00000280: 02d9 043d ccad fcbc 574b 2bbd 1da6 663d
00000290: eadd a3bc a3ae d8bd c754 ee3b b500 29bd
000002a0: 19e1 b83c 41a9 a63d 060d 7c3d 8856 febc
000002b0: 7a35 b53d 8e16 12bb a3fb 793c a53b 763d
000002c0: 2782 68bd 17bf 273d cf4a 1f3e d7c9 173c
000002d0: ea44 9a3c 2528 ffb9 a262 853d d019 b5bc
000002e0: 52a4 893c 2e14 873c 153f 7f3c 7ac8 683d
000002f0: 6f06 9c39 efaf 713c fe4c 8a3c d70d 27bd
00000300: 681a 81bd 119f a0bd b2b7 b0bc f8ab 553d
00000310: 9e1c 43bd cc60 30bc ddd1 e1bc 5059 d3bb
00000320: 1e93 ad3b 7f85 6abc 4007 72bd 5a6c 16bd
00000330: 55ca f9ba b177 f9bc 4873 bb3b 0c34 323d
00000340: 5766 393d e1f0 f43d 830f 293c e857 7abc
00000350: 00d8 173d 0385 a9bd 8fd1 32be 9302 01bd
00000360: ed4f 833a e2e2 9e3c 1d49 e5bc a587 733d
00000370: 0e88 18bd 58da 76bd aaeb 89bc 4f16 9ebc
00000380: 5f23 58bd 1021 21bd d254 f2bc bbfa 1f3d
00000390: 3a06 493d 2227 c7bb b4f5 903d 8959 8c3c
000003a0: 5bfd 123c 1cc1 f73c 555c a13a 9e9e 263d
000003b0: 939b 7dbe c96f 9b3c 4669 87bb 07d9 06bd
000003c0: fc00 903c c26a a83b 640f 373d b970 8d3b
000003d0: 20fd e6bd 0ffa 49bc c7ad afbc 18c8 333e
000003e0: 9ada 59bc f96c 063d ba01 38bc 2604 203d
000003f0: 29d0 1fbd 93eb 1a3c 40b9 c5bb c89e 6d3c

bias f4 [12]
-0.17326966 -0.15109701 -0.02046372 -0.045112513 -0.14952871 0.028820429 0.052363962 0.03209569
-0.020253398 -0.11925634 0.02382486 0.040846493
00000000: 9a6d 31be 2db9 1abe 88a3 a7bc e6c7 38bd
00000010: 0e1e 19be d218 ec3c 987b 563d c576 033d
00000020: 74ea a5bc ab3c f4bd 5a2c c33c a74e 273d

weight f4 [128, 270]
-0.0018660608 -0.03377833 -0.23198207 0.28415206 -0.006802556 0.12088041 0.07010235 0.21514298
0.047801234 -0.38156766 0.010329425 -0.253127 -0.10544873 0.114228725 -0.08753519 -0.6185795
0.109340854 0.23178887 3.0534978 0.32099748 -0.06500997 -0.054159544 0.016858045 0.030386461
0.07382666 -0.07180594 0.043004133 0.22030197 0.016395852 -0.049706507 -1.39084 -0.3101122
-0.11682546 0.028526643 -0.026148632 0.025508944 -0.025874097 0.02693619 -0.015318822 -0.03191576
-0.044240765 0.014186599 -0.020197535 0.057338502 -0.020776661 0.010968217 0.018003 -0.050156284
-0.45836225 -0.26662737 0.15551558 0.015279726 0.24988978 0.016065115 -0.33587068 0.13708745
-0.23003142 -0.28400964 -0.008882244 -0.16109787 0.26142246 0.026701128 0.08585491 1.6374382
0.10944427 -0.2852349 0.110786766 -0.0006250569 -0.030323762 0.21840473 -0.11233494 0.013094998
0.16069753 -0.013644686 -0.08737033 0.3749886 0.02652632 0.092605256 0.032627046 -0.017332966
0.047730487 0.038450446 0.018336179 0.025000546 0.035541717 0.019971488 -0.011696819 0.07571463
0.07957878 0.08435114 0.020144317 -0.035816547 -0.08843044 -0.4881257 -0.22832087 0.18757197
0.002882952 0.13198408 5.5228717e-05 0.037126787 0.066629104 -0.124475904 -0.120936535 -0.19098637
-0.16454256 0.371691 -0.1850692 -0.035675116 -0.745358 -0.12985004 -0.30012625 0.006608844
-0.042055327 -0.011964558 0.12642874 -0.024612123 0.031273026 0.00872126 -0.045737203 -0.04691032
1.2649888 0.17668252 0.17529684 -0.022674186 0.016341282 0.043161593 -0.008632335 0.017144032
0.021895066 -0.016924717 0.02851172 -0.019249773 0.085567184 0.07253454 0.13220358 0.007958954
-0.0003420746 -0.023680212 -0.21721806 0.13229439 0.30373728 -0.03813098 -0.071848795 0.0674782
0.3301902 0.054193266 -0.11340525 0.24302986 -0.044201404 -0.12025662 0.15289058 -0.07140702
-0.04688901 -1.9444536 -0.51749265 -0.24542451 0.20638068 -0.07375129 -0.060035683 0.21204649
-0.038447693 0.03718366 0.051059484 -0.029926615 -0.0076464866 -0.014301814 -0.21260382 -0.057129674
-0.032682884 -0.0050524385 0.050197788 -0.048881523 0.0036530271 0.019311583 -0.024421548 -0.00016665005
-0.02353437 0.011711644 0.019221265 0.07420134 -0.025873456 -0.025020288 -0.008553765 -0.044331968
0.08273661 -0.06733706 -0.08155375 -0.15630175 0.052313946 0.16803011 0.038017258 -0.05381953
0.4000428 0.025625054 -0.04980623 -0.04462228 0.095228545 0.009715926 -1.5372659 -0.43202275
-0.056147095 0.18205328 -0.031909052 -0.045851316 0.18366653 -0.035945684 0.020172887 0.021035897
0.035783272 0.014143142 -0.46947798 -0.20431186 -0.094027296 -0.007166967 -0.015076225 0.028110899
-0.031010661 -0.018639268 0.021622282 0.014951071 -0.020102127 -0.019018827 0.019739185 0.0035679142
0.013013825 0.02895116 -0.23296382 0.4764486 0.07709104 0.023532359 -0.3195143 -0.050573196
-0.2115305 0.060118027 0.2262885 -0.06761087 0.129526 0.33244216 -0.03520517 0.16747926
-0.0678661 0.1201431 0.04057149 -0.75457317 -0.15556477 -0.07253916 -0.088301584 -0.00687923
-0.007866497 0.05301325 0.008214433 -0.01019715 -0.0047105355 0.024844754 0.0009091785 -0.29109412
00000000: 9c96 f4ba 255b 0abd b58c 6dbe 617c 913e
00000010: fae7 debb 2690 f73d d291 8f3d 714e 5c3e
00000020: 3acb 433d d65c c3be c03c 293c dd99 81be
00000030: 81f5 d7bd c0f0 e93d a645 b3bd 3a5b 1ebf
00000040: 19ee df3d 105a 6d3e 826c 4340 c859 a43e
00000050: f223 85bd 66d6 5dbd e219 8a3c 07ed f83c
00000060: 6f32 973d fe0e 93bd 1a25 303d d796 613e
00000070: 9850 863c 0d99 4bbd 0c07 b2bf 07c7 9ebe
00000080: 3042 efbd b5b0 e93c a835 d6bc 22f8 d03c
00000090: eaf5 d3bc 49a9 dc3c ccfb 7abc 1aba 02bd
000000a0: ce35 35bd e96e 683c 4d75 a5bc c7db 6a3d
000000b0: d133 aabc 09b4 333c 077b 933c ad70 4dbd
000000c0: 75ae eabe 6283 88be 7a3f 1f3e d157 7a3c
000000d0: 1be3 7f3e fd9a 833c 3ef7 abbe a760 0c3e
000000e0: 5b8d 6bbe b669 91be d586 11bc d7f6 24be
000000f0: 2ad9 853e 53bc da3c b3d4 af3d 9397 d13f
00000100: 5124 e03d 4f0a 92be 2ce4 e23d dcda 23ba
00000110: 8a69 f8bc 7da5 5f3e dc0f e6bd 678c 563c
00000120: e58d 243e f68d 5fbc 37ef b2bd 81fe bf3e
00000130: ba4d d93c d3a7 bd3d f0a3 053d ddfd 8dbc
00000140: 0b81 433d 377e 1d3d c135 963c f2cd cc3c
00000150: 3194 113d 3f9b a33c 04a4 3fbc 4610 9b3d
00000160: 33fa a23d 4ac0 ac3d b205 a53c 5fb4 12bd
00000170: 051b b5bd 9deb f9be f2cc 69be de12 403e
00000180: e9ef 3c3b d626 073e 62a5 6738 4212 183d
00000190: d774 883d 39ed febd 93ad f7bd ee91 43be
000001a0: d87d 28be 484e be3e c882 3dbe 1220 12bd
000001b0: c8cf 3ebf 69f7 04be 26aa 99be 008f d83b
000001c0: 3542 2cbd fe06 44bc 8976 013e 5d9f c9bc
000001d0: 2518 003d 9ee3 0e3c ef56 3bbd 0925 40bd
000001e0: 27eb a13f 43ec 343e 0481 333e 37bf b9bc
000001f0: 27de 853c 36ca 303d a36e 0dbc a471 8c3c
00000200: 485d b33c b4a5 8abc 6991 e93c b3b1 9dbc
00000210: d93d af3d fd8c 943d 6060 073e 4666 023c
00000220: 7a58 b3b9 01fd c1bc 696e 5ebe 2e78 073e
00000230: 7483 9b3e 3b2f 1cbd 7625 93bd 0332 8a3d
00000240: b10e a93e c2f9 5d3d 0341 e8bd d2dc 783e
00000250: 880c 35bd 1a49 f6bd 598f 1c3e d83d 92bd
00000260: b10e 40bd dbe3 f8bf 667a 04bf 9050 7bbe
00000270: 7555 533e eb0a 97bd fae7 75bd b722 593e
00000280: 547b 1dbd e54d 183d c023 513d a928 f5bc
00000290: 618f fabb 2852 6abc d1b4 59be ce00 6abd
000002a0: 7dde 05bd ed8e a5bb 329c 4d3d fe37 48bd
000002b0: a067 6f3b 5333 9e3c b30f c8bc c8be 2eb9
000002c0: 27cb c0bc 32e2 3f3c ea75 9d3c dff6 973d
000002d0: 92f4 d3bc 59f7 ccbc 1725 0cbc 7095 35bd
000002e0: d071 a93d 03e8 89bd a705 a7bd 910d 20be
000002f0: 2647 563d 1610 2c3e fcb7 1b3d de71 5cbd
00000300: 69d2 cc3e a2eb d13c 9e01 4cbd dac5 36bd
00000310: 2f07 c33d 8c2f 1f3c 21c5 c4bf 1632 ddbe
00000320: 7ffa 65bd 2d6c 3a3e 11b3 02bd 97ce 3bbd
00000330: 1413 3c3e c83b 13bd 9c41 a53c 7953 ac3c
00000340: 7b91 123d a3b8 673c 6b5f f0be 2137 51be
00000350: 6291 c0bd e0d8 eabb 4502 77bc d448 e63c
00000360: 120a febc 61b1 98bc 3621 b13c 56f5 743c
00000370: 37ad a4bc 5fcd 9bbc 12b4 a13c abd3 693b
00000380: f037 553c fc2a ed3c 118e 6ebe 12f1 f33e
00000390: e8e1 9d3d efc6 c03c 6197 a3be d725 4fbd
000003a0: 749b 58be 523e 763d 2cb8 673e 9177 8abd
000003b0: 77a2 043e dc35 aa3e 4c33 10bd af7f 2b3e
000003c0: 62fd 8abd 960d f63d 4a2e 263d b52b 41bf
000003d0: 5f4c 1fbe 698f 94bd 76d7 b4bd 2a6b e1bb
000003e0: 7be2 00bc 6c24 593d d495 063c f211 27bc
000003f0: d65a 9abb 3a87 cb3c f055 6e3a 4a0a 95be
